baseline/data/checkpoints/raw_e_64_h_64_lr_0.001_max_len_10_k_3_vocab_25_seed_1_btch_size_1024.pt (torch_old, 345870 bytes, 33 tensors)

embedding f4 [25, 64]
-0.0031738207 0.04984013 0.0950655 -0.16734755 -0.050042987 -0.016567528 -0.18496022 -0.122088134
-0.014615213 -0.09270316 -0.15417266 -0.08213655 -0.20096125 0.0020643622 0.07034816 0.0841599
0.052226085 0.2323885 0.051292174 0.095644936 0.047837026 -0.12265719 0.105008006 0.11375255
0.03924575 -0.100558214 0.18248925 -0.045695353 0.02177336 0.122994006 -0.0940506 -0.038017396
0.09416294 -0.047501534 0.18111004 -0.0039042826 0.0027077163 0.071477935 0.05773828 -0.014146156
0.008679751 -0.16429344 0.03424174 0.044683196 -0.11526404 0.24013126 0.09603296 -0.03365306
0.02746018 -0.13756004 -0.041378334 0.16024144 -0.01086027 0.20360163 -0.06396142 -0.018481754
0.1091845 -0.08653672 0.14590551 0.008538107 0.18721454 -0.005309377 0.07735989 0.01472871
0.00025265967 0.11325486 -0.16424863 -0.10452652 -0.123136595 -0.028166775 -0.017728703 -0.1051796
0.051652692 -0.25127712 -0.107553 -0.22205311 -0.034834746 -0.0032817407 -0.117130026 -0.033934187
0.1251335 0.0047702324 -0.065236546 0.061436005 -0.124992914 0.020789782 0.09014161 -0.03722332
0.073041715 0.1894811 -0.10771856 -0.120768294 0.009820327 -0.02253321 -0.018461807 -0.082324386
0.0123717245 -0.2152539 -0.0010696931 -0.036055636 -0.07758081 0.08690609 0.0071890866 0.014658355
-0.046586893 0.009366752 -0.05741402 -0.06478263 -0.12031914 0.02911006 -0.1748711 -0.024131307
0.011813787 0.064168416 -0.0037519073 0.06447855 -0.087136805 -0.1688792 0.0006287895 0.0125530595
-0.057319205 -0.06471904 -0.016141443 0.02432772 -0.035918154 0.103604905 0.0800952 -0.037329514
0.11393156 0.046359885 0.09551425 -0.0758598 0.021128997 0.02862781 0.07103391 -0.25777206
0.08610385 -0.02526463 0.0383512 0.011881576 0.09684737 0.13594413 0.029083315 -0.18418737
0.16547875 -0.016389322 0.009788714 0.007990645 -0.044644427 -0.093877144 -0.10753143 0.061793838
0.0437044 0.059964646 0.10528295 -0.086568125 -0.10993586 0.09434299 0.0034887074 0.021982592
-0.046622805 -0.07876047 -0.050752573 0.067543775 -0.05371965 -0.015115398 -0.15653668 0.09239391
-0.10639042 -0.044997957 0.080663115 0.041285094 0.11324002 0.1878724 0.05766758 0.041008696
0.06074916 0.0953889 -0.0068708938 -0.001570147 0.101390645 0.053615265 -0.13441342 0.23783754
0.060410656 0.22473963 -0.0693506 0.052388117 -0.06750405 0.03616787 0.0048040957 -0.066266604
-0.14463161 -0.06399771 -0.17401314 0.034715507 -0.028582517 -0.12788229 -0.12364818 0.05156021
0.07373938 -0.050632372 -0.014535968 0.009799344 -0.26678452 0.044744737 0.17287147 -0.04497074
0.13303775 -0.14107078 -0.12343523 -0.048531316 -0.051924113 0.027132146 0.082415335 0.19782227
0.092328966 0.08664219 0.10387823 -0.085205495 0.036553882 0.07822299 -0.081964664 0.13633303
-0.12960733 0.050320245 -0.06078816 0.10199912 0.13197136 0.1928926 -0.037691403 0.027705254
0.12097378 -0.1875709 -0.06238095 -0.15137416 -0.018541588 -0.15005468 -0.005055623 0.059460703
-0.120749764 0.19677228 0.0956667 -0.04887243 0.05183131 0.13023724 0.14637706 -0.0638771
-0.058505446 0.12994248 -0.12893908 -0.034622375 -0.029139595 0.1404777 0.017815853 -0.08032189
00000000: e0ff 4fbb 2a25 4c3d b3b1 c23d 285d 2bbe
00000010: e0f9 4cbd a0b8 87bc 3666 3dbe 5809 fabd
00000020: a574 6fbc 28db bdbd 70df 1dbe 3537 a8bd
00000030: c9c8 4dbe 404a 073b b212 903d 075c ac3d
00000040: 05eb 553d 40f7 6d3e be17 523d 7ee1 c33d
00000050: c2f0 433d b133 fbbd 700e d73d 19f7 e83d
00000060: 27c0 203d 77f1 cdbd 76de 3a3e 0d2b 3bbd
00000070: 0c5e b23c 48e4 fb3d 9a9d c0bd 21b8 1bbd
00000080: 80d8 c03d f890 42bd e974 393e fede 7fbb
00000090: f173 313b 0663 923d fa7e 6c3d 47c5 67bc
000000a0: 8435 0e3c 8a3c 28be 1141 0c3d ba05 373d
000000b0: 8e0f ecbd f8e4 753e eeac c43d cbd7 09bd
000000c0: 2cf4 e03c 8adc 0cbe 547c 29bd 5516 243e
000000d0: 46ef 31bc f27c 503e 34fe 82bd 0c67 97bc
000000e0: 209c df3d 2a3a b1bd 4168 153e 6be3 0b3c
000000f0: 2bb5 3f3e 48fa adbb dd6e 9e3d b050 713c
00000100: 6877 8439 2af2 e73d cb30 28be 0012 d6bd
00000110: 0a2f fcbd 02be e6bc c93b 91bc 6768 d7bd
00000120: c691 533d 65a7 80be bf44 dcbd e461 63be
00000130: e1ae 0ebd 7912 57bb dee1 efbd 93fe 0abd
00000140: ff22 003e 9c4f 9c3b bd9a 85bd 52a4 7b3d
00000150: 49fc ffbd 554f aa3c 2a9c b83d 7b77 18bd
00000160: e596 953d 5507 423e 8c9b dcbd 5e55 f7bd
00000170: 70e5 203c 9197 b8bc 373d 97bc b099 a8bd
00000180: c6b2 4a3c 856b 5cbe f234 8cba 13af 13bd
00000190: b0e2 9ebd d2fb b13d 6e92 eb3b 9929 703c
000001a0: e6d1 3ebd 0177 193c f72a 6bbd c1ac 84bd
000001b0: e269 f6bd 3878 ee3c 6911 33be 05af c5bc
000001c0: 9d8e 413c bb6a 833d 8fe2 75bb 540d 843d
000001d0: c874 b2bd abee 2cbe 59d5 243a 59ab 4d3c
000001e0: 8bc7 6abd 6b8b 84bd 0f3b 84bc ed4a c73c
000001f0: ea1e 13bd cf2e d43d f408 a43d d5e6 18bd
00000200: f354 e93d dde3 3d3d fa9c c33d 625c 9bbd
00000210: b816 ad3c de84 ea3c 3a7a 913d b3fa 83be
00000220: 3757 b03d c5f7 cebc 2616 1d3d f1aa 423c
00000230: ea57 c63d f034 0b3e 2240 ee3c 9d9b 3cbe
00000240: 4373 293e e642 86bc d860 203c 32eb 023c
00000250: 13dd 36bd a942 c0bd 7039 dcbd 891b 7d3d
00000260: 6303 333d 7d9d 753d 969e d73d a14a b1bd
00000270: 0d26 e1bd e636 c13d cca2 643b d614 b43c
00000280: 8ef7 3ebd 2b4d a1bd eee1 4fbd 6454 8a3d
00000290: 2309 5cbd 93a6 77bc 274b 20be 0539 bd3d
000002a0: 38e3 d9bd c74f 38bd b432 a53d 8f1a 293d
000002b0: 62ea e73d 9f61 403e d734 6c3d bcf8 273d
000002c0: 1cd4 783d 415b c33d 3c25 e1bb 64cd cdba
000002d0: e6a5 cf3d ae9b 5b3d aca3 09be af8b 733e
000002e0: 2a71 773d 2522 663e b007 8ebd ec94 563d
000002f0: 903f 8abd c324 143d ad6b 9d3b c9b6 87bd
00000300: 4f1a 14be 3b11 83bd 8030 32be d931 0e3d
00000310: e225 eabc 93f3 02be 423b fdbd cc30 533d
00000320: ac04 973d e463 4fbd 4528 6ebc 6e8d 203c
00000330: fb97 88be 4246 373d 3805 313e 3d33 38bd
00000340: 0c3b 083e dc74 10be 9ccb fcbd c6c8 46bd
00000350: 61ae 54bd 3c44 de3c 5fc9 a83d ec91 4a3e
00000360: f816 bd3d 7671 b13d 1cbe d43d 3880 aebd
00000370: 86b9 153d 6033 a03d 17dd a7bd e39a 0b3e
00000380: c9b7 04be 9a1c 4e3d 01fd 78bd eae4 d03d
00000390: 8023 073e a385 453e 4d62 1abd 21f6 e23c
000003a0: 1ac1 f73d 9612 40be 2b83 7fbd d401 1bbe
000003b0: 87e4 97bc efa7 19be a4a9 a5bb 118d 733d
000003c0: a74b f7bd ac7e 493e e7ec c33d 752e 48bd
000003d0: 114d 543d e95c 053e dee3 153e ffd1 82bd
000003e0: 68a3 6fbd a40f 053e 9b08 04be 31d0 0dbd
000003f0: 29b6 eebc 63d9 0f3e 8df2 913c ce7f a4bd

e f4 [25, 25]
-0.043206103 -0.0798481 0.11349863 -0.098080754 0.14451301 -0.008001675 -0.060587388 0.10185306
-0.1338984 -0.055209354 -0.08120853 -0.030753434 -0.13475195 0.09568011 -0.08730559 -0.024887051
0.043154467 0.047257364 -0.07116286 0.020882815 0.05729867 -0.027570203 0.10285711 0.05549422
-0.02950403 0.16694811 -0.16931514 -0.16458401 0.028517155 0.047715563 -0.015859133 0.18557173
0.24894758 -0.05275714 0.13304505 0.10569831 -0.0016386731 -0.041316263 -0.03563659 0.13426664
0.04104866 0.006860632 0.12742218 0.2265197 0.11186094 -0.086908385 -0.18677972 -0.065755635
-0.10849729 0.007362151 -0.0029434166 -0.039080482 -0.027323792 -0.066448584 0.07746981 -0.06755213
0.0121435635 0.017451555 -0.18094236 0.18389095 0.20214218 0.09745473 -0.015647797 0.09320688
-0.22214884 0.029274294 -0.124364 0.17917763 -0.058846008 0.16975477 0.064072125 0.18589008
0.11838183 0.13551012 -0.22032352 0.14185952 -0.052643172 0.05910174 -0.026078003 0.08610993
0.12406893 0.02452716 -0.023672717 0.13120796 0.006738252 -0.112757936 -0.08002275 0.1626004
0.15585722 -0.12069399 -0.01800082 0.03171316 0.13798498 0.17024562 -6.326844e-05 0.07836795
-0.00046886387 -0.039981615 -0.033969406 0.17676538 -0.079869516 -0.007096452 0.02006065 -0.006929716
-0.28922465 0.112793185 0.017216533 0.0007961696 0.088311225 0.2603566 0.035613228 0.08754017
-0.13893014 0.15302137 -0.04354171 0.09723645 0.14953078 0.06251152 0.053293627 -0.02403469
-0.072544634 0.10332527 -0.071407706 0.03940883 -0.1484454 0.103751935 0.09068077 -0.085026935
0.20215775 0.096201174 0.012385499 0.11888191 -0.08272703 -0.07507715 -0.21984895 -0.011063517
-0.060335625 -0.07375156 0.09230188 0.039494712 0.028663868 0.2436838 -0.02564865 -0.013896766
0.054985683 -0.004046621 -0.19051927 -0.05830387 -0.019243594 0.06760542 -0.05094224 -0.038491003
0.0591594 -0.17594697 0.063028716 -0.19277415 0.014434627 -0.13970625 0.09884091 -0.06525307
-0.012836194 0.14423257 0.04035815 -0.03031755 -0.010534198 0.16283605 0.001202013 0.028090898
0.10345929 0.042007316 0.057128448 -0.028355567 0.09416873 -0.108380154 0.03338687 0.12886648
-0.082526274 -0.09702158 0.032167356 -0.09600576 -0.13973084 0.0849314 0.14898063 0.05318822
-0.11358431 -0.124798484 -0.15428697 -0.13535006 -0.06362526 0.014771155 -0.032623537 0.011072321
-0.19668092 -0.10668206 -0.052170396 -0.0031979624 -0.0373782 -0.060610496 -0.06762792 0.0402922
0.10244148 -0.04549945 0.023482107 0.26471052 0.14204177 -0.09843896 0.15233898 0.07290279
0.053127237 0.25748572 0.061285183 0.1527736 -0.03542237 0.1484287 -0.014838788 0.11435346
-0.18996109 0.07288789 0.12064666 -0.050997984 0.011304547 0.14497866 0.118269034 0.15504685
0.15406127 0.05460891 0.23199369 0.2017362 -0.1156322 -0.061529644 -0.14159305 0.147803
0.12161779 0.113423854 0.11348996 0.24748237 0.08051 0.03890235 0.18981615 0.13353284
0.060700912 -0.100871526 0.00902155 -0.07359517 -0.09188641 0.0046854788 -0.05536117 0.1129097
-0.08421318 0.19540526 -0.0005420197 -0.020765845 -0.17006148 0.055910114 -0.008155546 0.015296375
00000000: e2f8 30bd 6787 a3bd f871 e83d 90de c8bd
00000010: 38fb 133e 7519 03bc 7b2a 78bd 5698 d03d
00000020: aa1c 09be 3423 62bd a850 a6bd a0ee fbbc
00000030: 6afc 09be eff3 c33d 46cd b2bd eedf cbbc
00000040: bdc2 303d f090 413d d5bd 91bd 7012 ab3c
00000050: 03b2 6a3d e8da e1bc c0a6 d23d e84d 633d
00000060: 6fb2 f1bc 72f4 2a3e f360 2dbe b688 28be
00000070: cf9c e93c 6571 433d 03eb 81bc 8406 3e3e
00000080: 1dec 7e3e df17 58bd f63c 083e 5b78 d83d
00000090: bfc8 d6ba 3e3b 29bd acf7 11bd 327d 093e
000000a0: a422 283d 27cf e03b f67a 023e c8f4 673e
000000b0: 5917 e53d 06fd b1bd 2f43 3fbe e4aa 86bd
000000c0: d433 debd 333e f13b 56e6 40bb db12 20bd
000000d0: 25d6 dfbc 3216 88bd 7ea8 9e3d c558 8abd
000000e0: ccf5 463c 90f6 8e3c f448 39be e94d 3c3e
000000f0: 5cfe 4e3e 5896 c73d cf2f 80bc 40e3 be3d
00000100: fc7a 63be a5d0 ef3c 8eb2 febd 577a 373e
00000110: 8308 71bd 32d4 2d3e 3f38 833d f859 3e3e
00000120: 2c72 f23d 2ac3 0a3e 7d9c 61be 9f43 113e
00000130: 5ea0 57bd ab14 723d 89a1 d5bc 675a b03d
00000140: da17 fe3d 2fed c83c 49ed c1bc 615b 063e
00000150: 8ecc dc3b a2ed e6bd f8e2 a3bd b880 263e
00000160: 0999 1f3e 692e f7bd 7576 93bc a9e5 013d
00000170: ef4b 0d3e de54 2e3e fcae 84b8 607f a03d
00000180: d8d1 f5b9 c3c3 23bd 8123 0bbd fc01 353e
00000190: a192 a3bd 5b89 e8bb 3b56 a43c ac12 e3bb
000001a0: 4115 94be 1d00 e73d b009 8d3c 0ab6 503a
000001b0: 84dc b43d 764d 853e 2ddf 113d 4348 b33d
000001c0: b443 0ebe a2b1 1c3e cb58 32bd e723 c73d
000001d0: 991e 193e 0a06 803d 6b4a 5a3d 66e4 c4bc
000001e0: 4892 94bd 339c d33d 343e 92bd 276b 213d
000001f0: 1202 18be e57b d43d d7b6 b93d 9a22 aebd
00000200: 7102 4f3e 1f05 c53d 8cec 4a3c 5c78 f33d
00000210: ca6c a9bd 0cc2 99bd 1520 61be c143 35bc
00000220: 7d22 77bd 0f0b 97bd c508 bd3d 35c5 213d
00000230: 7dd0 ea3c 3f88 793e 1e1d d2bc 43af 63bc
00000240: ab38 613d 8499 84bb 7c17 43be 0ad0 6ebd
00000250: bea4 9dbc b674 8a3d cfa8 50bd bea8 1dbd
00000260: 2151 723d 712b 34be 3315 813d 9666 45be
00000270: 377f 6c3c 280f 0fbe 1a6d ca3d 67a3 85bd
00000280: e64e 52bc b4b1 133e 964e 253d 835c f8bc
00000290: a197 2cbc 7ebe 263e dd8c 9d3a e21e e63c
000002a0: 77e2 d33d dd0f 2c3d 85ff 693d ef49 e8bc
000002b0: 89db c03d 6af6 ddbd acc0 083d 93f5 033e
000002c0: 8903 a9bd 40b3 c6bd ebc1 033d ab9e c4bd
000002d0: 9a15 0fbe 84f0 ad3d 618e 183e e4db 593d
000002e0: e49e e8bd 5996 ffbd 67fd 1dbe 3599 0abe
000002f0: f64d 82bd b702 723c 42a0 05bd ae68 353c
00000300: b966 49be 207c dabd a0b0 55bd e894 51bb
00000310: e219 19bd b642 78bd 8280 8abd 6f09 253d
00000320: d7cc d13d a25d 3abd 8c5d c03c 2388 873e
00000330: 6673 113e 5e9a c9bd c0fe 1b3e 0f4e 953d
00000340: f29b 593d 2bd5 833e 2c06 7b3d af70 1c3e
00000350: 0c17 11bd b1fd 173e 631e 73bc 2632 ea3d
00000360: 2985 42be 3f46 953d 9915 f73d 43e3 50bd
00000370: b536 393c 4975 143e 0937 f23d 9ac4 1e3e
00000380: 3dc2 1d3e 98ad 5f3d c18f 6d3e ef93 4e3e
00000390: 93d0 ecbd 8206 7cbd c5fd 10be ab59 173e
000003a0: bf12 f93d c44a e83d 6d6d e83d 056c 7d3e
000003b0: 6de2 a43d 1258 1f3d 2a5f 423e d5bc 083e
000003c0: 85a1 783d bb95 cebd 20cf 133c 11b9 96bd
000003d0: f12e bcbd a588 993b 65c2 62bd 333d e73d
000003e0: f677 acbd 5118 483e 5416 0eba 221d aabc
000003f0: 9924 2ebe 0102 653d d79e 05bc a69d 7a3c

rnn.weight_ih f4 [256, 64]
0.1284529 0.0902668 -0.08828886 -0.08375137 0.045550745 -0.020251146 -0.14706737 0.06344669
-0.023001824 -0.012706001 0.06240779 0.010048982 0.034617726 -0.0889655 -0.06347984 -0.06226278
0.056989703 0.088456854 -0.028013708 0.047946673 -0.038223024 -0.01916371 -0.00079807243 -0.022971658
-0.047416206 -0.13172716 -0.038683835 0.10005465 0.0799662 -0.02994222 -0.08094319 -0.07360625
-0.011338751 -0.0722119 -0.10314564 0.08364353 -0.042689353 0.06278278 -0.055852957 -0.025516935
-0.03949117 -0.00092898216 -0.06420874 0.022349097 0.062118415 0.15776314 -0.04681225 -0.027338991
0.00019955749 0.04527292 0.14238185 -0.0019168411 -0.11998151 -0.13455859 -0.09329949 0.10544054
0.07931167 0.08076641 -0.0065614358 -0.14350106 -0.083801344 0.13736665 0.032662377 -0.09256695
0.014890783 0.08810976 0.018198088 0.075848795 0.06582499 -0.10963997 0.0054996884 -0.05532889
0.008732477 -0.08587191 -0.10548229 0.11385235 0.13554026 0.054708127 0.02526328 -0.04027562
0.014202735 -0.0060039116 -0.08395116 0.044040438 0.007857683 0.025337087 0.09254502 -0.106366515
-0.14134736 0.08418003 0.095058404 -0.08349448 -0.04781962 -0.12965739 0.014044524 0.101974174
0.123616464 -0.10279537 -0.02293929 0.03270895 0.00452751 -0.045836415 0.0068503683 0.007951279
0.101379685 0.023998255 -0.13051638 -0.016120285 -0.04031937 -0.056031637 -0.02596311 0.05744386
-0.09391193 -0.024753353 -0.12137691 -0.040744502 0.11636564 -0.09277238 0.072589956 -0.1261534
-0.0057739234 0.102285154 0.0077513675 -0.010825512 0.046098657 0.0776674 -0.06513489 0.07754031
-0.105073236 -0.114859596 -0.0027134563 0.14225824 0.08975541 0.05971127 0.10750072 0.1299292
0.08171082 -0.1101979 0.124386095 -0.038521446 -0.021318011 -0.11466496 0.07144486 0.03180513
-0.02592627 -0.02171924 -0.026946954 0.0371338 -0.06952753 0.10896679 0.13370806 -0.09086959
0.083773606 0.056584783 -0.07953057 0.055325393 0.18196073 -0.08643943 0.10439497 -0.052723203
0.0979148 0.094687544 0.14154047 -0.06696804 -0.06961519 -0.12767072 0.09015759 -0.13602456
0.036124825 -0.07092702 -0.1561785 0.04448437 0.0031929608 0.05646164 0.074927226 -0.081315085
-0.0035726335 0.038100686 -0.019729644 0.14149053 -0.12802218 0.101502314 0.029441113 0.067601
-0.08938359 0.017417036 -0.057845246 0.022766743 0.07705244 -0.1285324 -0.07165684 0.05257602
0.0181878 0.06031779 -0.008638426 0.070713565 0.038245663 0.12678735 0.072939016 -0.0006374131
-0.14907801 0.05549169 -0.041878674 0.006380237 0.09486128 -0.08464431 -0.08053845 -0.039779827
0.13351212 -0.03862217 -0.13020746 -0.05857369 0.03778493 -0.10765577 0.07550019 -0.07283076
0.0049848724 -0.061489377 0.074077606 -0.011223639 -0.027494881 0.039697755 0.051804055 -0.10118832
0.0234828 -0.104546696 0.13464087 0.10510973 -0.06505422 -0.0853168 -0.11119624 -0.09028689
0.027424488 0.061615117 0.11488024 0.10213432 0.06679342 0.057654213 0.034094196 -0.068176486
-0.024901858 -0.08926777 0.062853076 -0.11773211 0.07648634 0.0993076 -0.106973246 0.06499182
-0.0540773 -0.12986515 -0.021765951 0.01824098 -0.0144401435 0.09499726 0.016010843 0.06985128
00000000: 2889 033e cddd b83d cad0 b4bd d785 abbd
00000010: 6b93 3a3d bbe5 a5bc d498 16be 57f0 813d
00000020: 526e bcbc d52c 50bc 509f 7f3d 7ca4 243c
00000030: 51cb 0d3d 8b33 b6bd b801 82bd 4207 7fbd
00000040: 096e 693d de28 b53d 017d e5bc bb63 443d
00000050: bf8f 1cbd 36fd 9cbc bc35 51ba 0f2f bcbc
00000060: 7f37 42bd 7ce3 06be f172 1ebd 74e9 cc3d
00000070: 52c5 a33d 6349 f5bc 8bc5 a5bd e0be 96bd
00000080: 2bc6 39bc d5e3 93bd 053e d3bd 4d4d ab3d
00000090: 08db 2ebd 4294 803d 12c6 64bd e408 d1bc
000000a0: 7ec1 21bd f086 73ba df7f 83bd 7415 b73c
000000b0: e16f 7e3d a98c 213e 34be 3fbd 05f6 dfbc
000000c0: 4e40 5139 1970 393d 8ccc 113e 843e fbba
000000d0: deb8 f5bd bac9 09be ce13 bfbd 36f1 d73d
000000e0: 286e a23d dc68 a53d 5001 d7bb f1f1 12be
000000f0: 0aa0 abbd d8a9 0c3e fcc8 053d be93 bdbd
00000100: 78f8 733c e472 b43d 2814 953c 9d56 9b3d
00000110: 41cf 863d ec8a e0bd bb36 b43b 8ca0 62bd
00000120: aa12 0f3c 9ddd afbd 1907 d8bd 6c2b e93d
00000130: 11cb 0a3e a115 603d f0f4 ce3c 0cf8 24bd
00000140: 97b2 683c 76bc c4bb 96ee abbd bf63 343d
00000150: 83bd 003c b98f cf3c 3e88 bd3d b0d6 d9bd
00000160: 5dbd 10be 9466 ac3d fbad c23d 27ff aabd
00000170: 82de 43bd e8c4 04be 011b 663c d6d7 d03d
00000180: a12a fd3d 6186 d2bd 2eeb bbbc d2f9 053d
00000190: 825b 943b f7be 3bbd 0e79 e03b 1546 023c
000001a0: 27a0 cf3d fd97 c43c 16a6 05be b00e 84bc
000001b0: ec25 25bd 6e81 65bd 97b0 d4bc 414a 6b3d
000001c0: e654 c0bd 8bc7 cabc 7594 f8bd b5e3 26bd
000001d0: 1c51 ee3d 72ff bdbd 0baa 943d 5b2e 01be
000001e0: 2e33 bdbb e17a d13d 2fff fd3b 7d5d 31bc
000001f0: f2d1 3c3d 1610 9f3d 7165 85bd 74cd 9e3d
00000200: a330 d7bd 823b ebbd 3ed4 31bb 25ac 113e
00000210: afd1 b73d ce93 743d 5629 dc3d 290c 053e
00000220: 0158 a73d 70af e1bd 23be fe3d aac8 1dbd
00000230: 1ca3 aebc 76d5 eabd af51 923d 1946 023d
00000240: 5463 d4bc 8cec b1bc dcbf dcbc 9d19 183d
00000250: 7364 8ebd fb29 df3d c4ea 083e d619 babd
00000260: 7f91 ab3d 72c5 673d ece0 a2bd e19c 623d
00000270: ea53 3a3e 2807 b1bd 08cd d53d 49f4 57bd
00000280: 8e87 c83d 8beb c13d fcef 103e 8a26 89bd
00000290: 6992 8ebd 1dbc 02be 8ba4 b83d 064a 0bbe
000002a0: a0f7 133d 2f42 91bd 42ed 1fbe 3e35 363d
000002b0: fe40 513b 5244 673d 7273 993d 8688 a6bd
000002c0: d822 6abb 770f 1c3d 10a0 a1bc e5e2 103e
000002d0: 3f18 03be 72e0 cf3d 7d2e f13c 6572 8a3d
000002e0: be0e b7bd 2cae 8e3c 23ef 6cbd 5281 ba3c
000002f0: abcd 9d3d ff9d 03be d2c0 92bd f459 573d
00000300: 95fe 943c c90f 773d 2f88 0dbc 46d2 903d
00000310: 7ca7 1c3d 8bd4 013e 0d61 953d 1218 27ba
00000320: e8a7 18be 414b 633d f988 2bbd 4f11 d13b
00000330: a146 c23d ff59 adbd 58f1 a4bd 2cf0 22bd
00000340: 67b7 083e 4832 1ebd 1b55 05be f7ea 6fbd
00000350: 5fc4 1a3d a17a dcbd d89f 9a3d 4b28 95bd
00000360: 2458 a33b 49dc 7bbd 00b6 973d 5be3 37bc
00000370: f23c e1bc 1d9a 223d 7d30 543d d23b cfbd
00000380: 005f c03c 941c d6bd 4cdf 093e c543 d73d
00000390: 263b 85bd 93ba aebd dbba e3bd 55e8 b8bd
000003a0: 52a9 e03c 2260 7c3d 5546 eb3d cc2b d13d
000003b0: fdca 883d d326 6c3d 5ba6 0b3d 1da0 8bbd
000003c0: fbfe cbbc 05d2 b6bd 1db9 803d 881d f1bd
000003d0: dfa4 9c3d c861 cb3d ca14 dbbd 6e1a 853d
000003e0: 2980 5dbd 5ffb 04be 824e b2bc 1c6e 953c
000003f0: 5a96 6cbc ec8d c23d 2c29 833c 300e 8f3d

rnn.weight_hh f4 [256, 64]
-0.12754512 -0.11843558 -0.012293684 -0.016395403 0.07080073 -0.0060651316 -0.06436985 -0.1581214
0.08688616 0.017740466 -0.019634495 0.03756502 -0.11010557 -0.03779174 -0.0046166633 -0.019227443
-0.04070377 -0.042233728 0.023511728 -0.11390621 0.039939266 -0.11459033 -0.05764149 -0.06282126
0.100159355 0.022188095 0.019217517 -0.12014147 -0.076230496 -0.06744428 -0.09333024 -0.060468573
0.05265884 -0.04201378 0.031807918 -0.06423074 0.03974882 -0.023433218 0.010040961 -0.05175697
-0.12429621 -0.023231756 -0.01654939 0.13821772 0.048037257 0.010609916 -0.030532055 -0.03570885
0.007882389 0.01673726 -0.091535166 -0.021124264 -0.0610771 0.04655132 -0.07706832 -0.053015072
0.11668685 -0.03667661 -0.08996282 -0.040802024 -0.0038940422 -0.023726095 0.0034923092 -0.0696219
-0.04554327 -0.030883022 -0.04382264 0.025060019 -0.027528523 0.083103724 -0.07597237 0.03657887
-0.043426894 -0.010277871 -0.05942166 0.13447192 -0.20284581 -0.058136318 0.046350047 -0.0019998313
-0.045899697 -0.08605486 -0.0049881544 0.016217237 -0.08552204 -0.019698098 -0.008803972 -0.04182272
0.01924143 -0.07872968 0.019203445 0.026114985 -0.0635045 -0.01719765 0.07380653 -0.0042595295
0.049638256 0.13976155 -0.10719186 -0.10722811 -0.10615892 -0.13961524 -0.10201486 -0.095253736
-0.09416463 0.019105367 -0.047167577 -0.081903 -0.09642119 -0.10599404 -0.12242844 -0.047888037
0.070130184 -0.018152129 0.07043126 0.07501581 -0.12646 -0.028544264 -0.030602658 -0.007859607
0.023820622 0.00017440884 -0.14882393 -0.041889217 0.050716203 -0.14390555 -0.009820321 0.052596662
0.044519495 -0.029574072 0.011149528 0.03336742 -0.0083806 -0.018323923 -0.027252331 0.07370362
-0.017315151 0.065569974 0.05994701 -0.05835645 0.00605415 0.024232125 -0.015559591 -0.01153599
0.038039014 -0.06140226 0.009851931 -0.04102251 -0.11004846 0.088950485 0.025197979 -0.028468879
0.0020525146 0.034058303 -0.053343266 0.053585004 -0.017120972 0.05290396 -0.011829636 0.10606594
-0.006053894 -0.040593904 0.0048925523 -0.016275724 0.106234886 0.035495833 0.037399657 -0.09617084
0.06975207 -0.010706103 0.017409503 -0.035592757 0.07555331 0.1332626 -0.06884213 0.016251568
0.015536862 0.10996231 -0.027756926 0.03476706 0.027288951 0.044917226 -0.0707157 0.029864354
-0.057050344 -0.022447282 0.038029924 0.07233081 0.13397762 0.050523818 0.0032496501 -0.06911263
-0.02091208 0.024654323 0.09751343 0.118200056 0.00022391188 0.09000199 0.09364628 0.028773021
-0.051862735 0.04416391 -0.10584186 0.038669966 0.08557428 -0.09258081 -0.10529509 0.03456332
0.013549331 -0.1232199 -0.045165755 -0.045681577 0.041534774 -0.047602635 -0.03597871 -0.0726662
0.08483126 -0.055251032 -0.034149732 0.04379059 -0.06055687 -0.010484222 -0.15375711 -0.10751663
-0.039345723 0.03598491 -0.089715324 -0.03636525 0.10618631 0.012390834 -0.0478261 -0.0014360202
-0.06842718 0.03369081 -0.030730749 -0.09219258 -0.051135045 -0.07187866 -0.04524144 -0.043146044
-0.1187108 -0.032616057 -0.11906297 -0.048834577 -0.062208645 0.017441235 0.048386376 0.063940644
0.15144712 -0.075239845 0.028983282 -0.10537092 0.018009918 -0.11444635 0.036380555 -0.11201725
00000000: 309b 02be 5a8e f2bd 736b 49bc a74f 86bc
00000010: f9ff 903d 03be c6bb 57d4 83bd 94ea 21be
00000020: 5ff1 b13d 7454 913c 85d8 a0bc c7dd 193d
00000030: 077f e1bd 83cb 1abd 6147 97bb df82 9dbc
00000040: ffb8 26bd 46fd 2cbd ab9b c03c a947 e9bd
00000050: 5b97 233d 56ae eabd 7c19 6cbd 6fa8 80bd
00000060: 5920 cd3d cfc3 b53c 0e6e 9d3c bb0c f6bd
00000070: bc1e 9cbd 3a20 8abd ed23 bfbd e5ad 77bd
00000080: ccb0 573d a416 2cbd 0549 023d 688b 83bd
00000090: a9cf 223d 05f7 bfbc d882 243c 1eff 53bd
000000a0: 038f febd 8650 bebc 9692 87bc f288 0d3e
000000b0: b7c2 443d 37d5 2d3c 5c1e fabc 7143 12bd
000000c0: 2325 013c 941c 893c ca76 bbbd cb0c adbc
000000d0: fb2b 7abd 99ac 3e3d ffd5 9dbd 5526 59bd
000000e0: 84f9 ee3d 373a 16bd 6d3e b8bd 0620 27bd
000000f0: 3033 7fbb 3a5d c2bc 3adf 643b ed95 8ebd
00000100: 948b 3abd 64fe fcbc 5e7f 33bd ab4a cd3c
00000110: 7f83 e1bc 4932 aa3d 6797 9bbd bad3 153d
00000120: 66e0 31bd 8464 28bc 2064 73bd 02b3 093e
00000130: d0b6 4fbe 5920 6ebd 8cd9 3d3d 9a0f 03bb
00000140: 5201 3cbd 883d b0bd ac73 a3bb 03da 843c
00000150: 2e26 afbd e85d a1bc 893e 10bc 4d4e 2bbd
00000160: 34a0 9d3c 073d a1bd 8b50 9d3c 18ef d53c
00000170: a60e 82bd 16e2 8cbc e127 973d 8693 8bbb
00000180: 7c51 4b3d a71d 0f3e 6887 dbbd 699a dbbd
00000190: d969 d9bd 4cf7 0ebe 2bed d0bd 6414 c3bd
000001a0: 63d9 c0bd dc82 9c3c ca32 41bd c3bc a7bd
000001b0: 7978 c5bd 6713 d9bd c3bb fabd 3f26 44bd
000001c0: 6aa0 8f3d c6b3 94bc 443e 903d e4a1 993d
000001d0: bb7e 01be a9d5 e9bc 6db2 fabc 95c5 00bc
000001e0: 7723 c33c 84e1 3639 4d65 18be 0794 2bbd
000001f0: cbbb 4f3d fa5b 13be 69e5 20bc 996f 573d
00000200: 135a 363d 5345 f2bc 83ac 363c 47ac 083d
00000210: c94e 09bc 0d1c 96bc 4840 dfbc ecf1 963d
00000220: 81d8 8dbc 8d49 863d ff8a 753d 2c07 6fbd
00000230: e461 c63b 7382 c63c a8ed 7ebc 7301 3dbc
00000240: ccce 1b3d f080 7bbd fe69 213c 3807 28bd
00000250: 1661 e1bd ac2b b63d fe6b ce3c 9137 e9bc
00000260: 7b83 063b b880 0b3d 787e 5abd f37b 5b3d
00000270: 4841 8cbc d3b1 583d 17d1 41bc 1939 d93d
00000280: be5f c6bb cb45 26bd b451 a03b ab54 85bc
00000290: ad91 d93d 1464 113d 6230 193d 38f5 c4bd
000002a0: 2cda 8e3d a768 2fbc 609e 8e3c b6c9 11bd
000002b0: b2bb 9a3d fe75 083e 1afd 8cbd 0222 853c
000002c0: 538e 7e3c eb33 e13d 7e62 e3bc e867 0e3d
000002d0: 148d df3c 20fb 373d 65d3 90bd 17a6 f43c
000002e0: 9fad 69bd 5de3 b7bc 44c5 1b3d 2d22 943d
000002f0: 6e31 093e 10f2 4e3d 15f8 543b ec8a 8dbd
00000300: cf4f abbc ddf7 c93c 1fb5 c73d df12 f23d
00000310: e3c9 6a39 f752 b83d 9fc9 bf3d 66b5 eb3c
00000320: 056e 54bd 37e5 343d 9ec3 d8bd 6664 1e3d
00000330: 9141 af3d 029b bdbd f4a4 d7bd 4592 0d3d
00000340: 03fe 5d3c b75a fcbd baff 38bd 9b1c 3bbd
00000350: 5e20 2a3d fbfa 42bd 695e 13bd 04d2 94bd
00000360: 03bc ad3d e84e 62bd 97e0 0bbd c35d 333d
00000370: 7b0a 78bd 04c6 2bbc 8172 1dbe ae31 dcbd
00000380: fb28 21bd ea64 133d abbc b7bd baf3 14bd
00000390: 3578 d93d ed02 4b3c 4de5 43bd d838 bcba
000003a0: 8d23 8cbd 60ff 093d 0dbf fbbc 77cf bcbd
000003b0: fb72 51bd 1e35 93bd 174f 39bd e8b9 30bd
000003c0: a61e f3bd 6a98 05bd 49d7 f3bd c406 48bd
000003d0: 7ece 7ebd ece0 8e3c cb30 463d 50f3 823d
000003e0: f414 1b3e 5917 9abd 596e ed3c b5cc d7bd
000003f0: 8989 933c d962 eabd c703 153d 4d69 e5bd

rnn.bias_ih f4 [256]
-0.016030543 0.007682231 0.026347203 0.00091148866 -0.017905137 -0.0048008696 0.005348442 -0.02758088
0.039015967 0.018727062 -0.015587548 0.0048733223 -0.012593088 0.0128184045 0.0013492291 -0.025576394
-0.0005420375 0.004115357 -0.016513621 -0.016704632 0.03114016 0.011025014 0.030940043 -0.020431962
-0.01103672 -0.03615171 -0.013044694 0.012304826 -0.0010023058 -0.0132772755 -0.007308184 -0.008005253
-0.010508598 -0.020708308 -0.03583758 0.0055489396 0.00017527935 0.01411139 -0.01249898 -0.00658061
-0.00012976708 0.0012265714 0.016774345 0.008523997 -0.008576445 -0.036550865 0.015387453 0.01900925
0.012559837 -0.0136969825 0.011612906 0.011119921 0.01761842 -0.011471787 0.012302678 0.011024211
-0.0094917035 -0.02528135 -0.018618394 0.0029478513 0.032435033 0.026242044 0.001962323 -0.020806463
-0.011361036 -0.0072840466 0.024081888 -0.0041432753 -0.024806567 -0.0006032756 -0.0024723797 -0.007927482
0.022805095 0.0018613001 -0.012303649 0.0019338024 -0.012724857 0.0011573004 -0.0042557004 -0.021807162
-0.009047298 -0.010313495 -0.022694483 -0.027855 0.013738929 0.010071504 0.01861115 -0.024109377
-0.00748836 -0.015238988 -0.0022253902 0.013091877 -0.0033714164 -0.011658008 -0.014615055 -0.0067175897
-0.005793697 0.0041811317 -0.045803357 -0.008603785 -0.006815726 -0.008927104 -0.029947273 -0.018870035
0.0017267795 -0.023751326 0.00073425943 -0.008239046 -0.006790333 -0.034584254 0.0137412455 0.0052472553
-0.007736175 -0.016875185 0.0036084733 0.0018698329 0.00417273 -0.005434485 -0.00024235666 0.00031689677
-0.0039297473 -0.018054154 -0.026916211 -0.011818945 0.025924211 0.0060040364 -0.0038304485 -0.025762822
0.015365529 -0.02093574 -0.020675573 0.0048122746 0.020797849 0.016783336 -0.015187991 0.006222311
0.021546818 0.01923684 -0.004095331 0.011161706 0.0115619395 0.018562442 0.0156132 0.021696668
-0.017626552 -0.015698412 0.012319161 0.0062100543 -0.016222034 0.0058124363 0.01607145 0.0047199638
0.009590031 -0.0070008477 -0.003698613 0.021016669 0.0069103087 -0.014064434 0.021234632 -8.1496284e-05
-0.020532321 -0.010836895 0.0040314016 -0.012946008 -0.009233131 0.017283365 0.015881905 0.016249264
0.01289077 -0.020089794 0.018264042 0.016987653 -0.014566113 -0.0020155604 -0.017008506 0.016152568
0.022598237 -0.0076766107 0.012969738 -0.01988017 0.016549975 0.005801682 0.014589826 -0.017578349
0.0061587645 0.019636009 -0.018103966 0.020211259 0.0015643828 0.0033748806 0.012225805 -0.010444372
-0.015854433 0.006891023 0.021930931 0.0020987666 -0.017537493 -0.005936637 0.002947448 -0.026480183
0.040485308 0.017569013 -0.017553939 0.004432522 -0.012231993 0.011028647 0.00017167136 -0.027110094
-0.0008282703 0.004630586 -0.015831696 -0.016270712 0.030786531 0.009687597 0.022552503 -0.019023973
-0.013029239 -0.037014652 -0.013901479 0.01074013 -0.0049149417 -0.013789125 -0.009600578 -0.006651081
-0.010090574 -0.025209071 -0.0347371 0.004012614 0.00023657997 0.01303614 -0.014657023 -0.005621768
-0.002180325 0.00032432616 0.014129079 0.007848321 -0.006812862 -0.037116732 0.012871044 0.018119443
0.010602958 -0.01584516 0.011850671 0.009502109 0.01931041 -0.009450911 0.012479402 0.008696134
-0.009827518 -0.025366526 -0.018961068 -0.0024144894 0.02505794 0.021806777 0.0022258551 -0.021511171
00000000: 7c52 83bc 39bb fb3b 17d6 d73c f8f0 6e3a
00000010: cbad 92bc 9d50 9dbb fc41 af3b 4cf1 e1bc
00000020: 35cf 1f3d 7f69 993c ea62 7fbc 64b0 9f3b
00000030: 3d53 4ebc 4904 523c 9ed8 b03a 9685 d1bc
00000040: 8517 0eba 1eda 863b 9347 87bc 27d8 88bc
00000050: a619 ff3c 43a2 343c f975 fd3c ee60 a7bc
00000060: 5cd3 34bc d113 14bd 6ab9 55bc 2e9a 493c
00000070: cd5f 83ba ee88 59bc 7e79 efbb 7728 03bc
00000080: 412c 2cbc 78a4 a9bc 6dca 12bd e1d3 b53b
00000090: 31cb 3739 7633 673c 86c8 4cbc 28a2 d7bb
000000a0: 1612 08b9 e8c4 a03a 5a6a 893c 3ca8 0b3c
000000b0: 3884 0cbc 5cb6 15bd a81b 7c3c 49b9 9b3c
000000c0: c6c7 4d3c 4f69 60bc 0f44 3e3c 5430 363c
000000d0: 8154 903c 29f4 3bbc 2c91 493c e49e 343c
000000e0: 1783 1bbc d51a cfbc 9a85 98bc bd30 413b
000000f0: 99da 043d 8ef9 d63c 519a 003b 5172 aabc
00000100: a423 3abc 03af eebb 6147 c53c 50c4 87bb
00000110: 2437 cbbc 2425 1eba a607 22bb 45e2 01bc
00000120: c0d1 ba3c def6 f33a 3f95 49bc a477 fd3a
00000130: eb7b 50bc 8fb0 973a 6773 8bbb efa4 b2bc
00000140: 1e3b 14bc eff9 28bc c8e9 b9bc 2b30 e4bc
00000150: 3f19 613c f302 253c 6976 983c 0781 c5bc
00000160: eb60 f5bb f3ac 79bc dad7 11bb 507f 563c
00000170: fbf2 5cbb 3b01 3fbc fc73 6fbc 3a1f dcbb
00000180: 0ed9 bdbb e001 893b 4d9c 3bbd e4f6 0cbc
00000190: 7456 dfbb fd42 12bc fc53 f5bc 5595 9abc
000001a0: 1b55 e23a 2492 c2bc 517b 403a 10fd 06bc
000001b0: 7181 debb 38a8 0dbd f622 613c 2bf1 ab3b
000001c0: bd7f fdbb d43d 8abc 237c 6c3b 2e15 f53a
000001d0: 65bb 883b c413 b2bb 1f21 7eb9 2a25 a639
000001e0: 1cc5 80bb 4ee6 93bc 637f dcbc 40a4 41bc
000001f0: 035f d43c 82bd c43b 4308 7bbb 8e0c d3bc
00000200: b3bf 7b3c 6e81 abbc d25f a9bc 49b0 9d3b
00000210: 4060 aa3c 357d 893c 0dd7 78bc 87e4 cb3b
00000220: f482 b03c 9496 9d3c 2032 86bb 97df 363c
00000230: 4a6e 3d3c 4310 983c 82ce 7f3c 36bd b13c
00000240: 8f65 90bc f599 80bc 4ed6 493c b67d cb3b
00000250: 12e4 84bc 4076 be3b 46a8 833c eda9 9a3b
00000260: 811f 1d3c 5e67 e5bb 6e64 72bb 262b ac3c
00000270: df6f e23b 836e 66bc 40f4 ad3c fce8 aab8
00000280: 6633 a8bc 3b8d 31bc d919 843b 7e1b 54bc
00000290: 8f46 17bc d895 8d3c c51a 823c 2d1d 853c
000002a0: cf33 533c 5a93 a4bc 799e 953c b129 8b3c
000002b0: b5a6 6ebc 7e17 04bb 6c55 8bbc 6452 843c
000002c0: f01f b93c 148c fbbb 067f 543c bddb a2bc
000002d0: d093 873c 091c be3b 2a0a 6f3c 7800 90bc
000002e0: 76cf c93b b2db a03c c54e 94bc 1592 a53c
000002f0: fa0b cd3a 1a2d 5d3b be4e 483c df1e 2bbc
00000300: 28e1 81bc 17ce e13b 7fa8 b33c 768b 093b
00000310: caaa 8fbc 1f88 c2bb f929 413b f8ec d8bc
00000320: ecd3 253d e4ec 8f3c 47cd 8fbc b13e 913b
00000330: b268 48bc 80b1 343c ae02 3439 fd15 debc
00000340: 4720 59ba 2cbc 973b 79b1 81bc 284a 85bc
00000350: 0934 fc3c bab8 1e3c 07c0 b83c 2ad8 9bbc
00000360: 9778 55bc ad9c 17bd 07c3 63bc 5ff7 2f3c
00000370: 850d a1bb c8eb 61bc be4b 1dbc 50f1 d9bb
00000380: ef52 25bc 4183 cebc 7d48 0ebd 3f7c 833b
00000390: 7412 7839 8995 553c 0324 70bc cf36 b8bb
000003a0: c9e3 0ebb 520a aa39 a77d 673c 3f96 003c
000003b0: 6e3e dfbb b707 18bd 12e1 523c 3a6f 943c
000003c0: 07b8 2d3c b5cd 81bc 5129 423c bcae 1b3c
000003d0: dd30 9e3c fed7 1abc 6876 4c3c 3b7a 0e3c
000003e0: 9903 21bc 76cd cfbc 3e54 9bbc 693c 1ebb
000003f0: 4f46 cd3c 20a4 b23c a7df 113b 3238 b0bc

rnn.bias_hh f4 [256]
-0.016030543 0.007682231 0.026347203 0.00091148866 -0.017905137 -0.0048008696 0.005348442 -0.02758088
0.039015967 0.018727062 -0.015587548 0.0048733223 -0.012593088 0.0128184045 0.0013492291 -0.025576394
-0.0005420375 0.004115357 -0.016513621 -0.016704632 0.03114016 0.011025014 0.030940043 -0.020431962
-0.01103672 -0.03615171 -0.013044694 0.012304826 -0.0010023058 -0.0132772755 -0.007308184 -0.008005253
-0.010508598 -0.020708308 -0.03583758 0.0055489396 0.00017527935 0.01411139 -0.01249898 -0.00658061
-0.00012976708 0.0012265714 0.016774345 0.008523997 -0.008576445 -0.036550865 0.015387453 0.01900925
0.012559837 -0.0136969825 0.011612906 0.011119921 0.01761842 -0.011471787 0.012302678 0.011024211
-0.0094917035 -0.02528135 -0.018618394 0.0029478513 0.032435033 0.026242044 0.001962323 -0.020806463
0.9886387 0.9927159 1.024082 0.9958569 0.97519356 0.9993963 0.9975281 0.9920728
1.0228052 1.0018611 0.98769635 1.001934 0.98727506 1.0011576 0.9957447 0.9781929
0.99095297 0.98968667 0.9773055 0.972145 1.0137384 1.0100709 1.0186112 0.9758907
0.9925117 0.98476094 0.9977748 1.0130917 0.9966287 0.9883421 0.9853849 0.9932826
0.99420613 1.0041814 0.9541966 0.99139655 0.9931841 0.99107265 0.97005266 0.9811298
1.0017266 0.9762485 1.0007336 0.9917612 0.9932097 0.9654157 1.0137415 1.0052474
0.9922637 0.9831249 1.0036087 1.0018697 1.0041733 0.9945659 0.99975765 1.0003163
0.9960703 0.98194593 0.9730838 0.9881812 1.0259243 1.006004 0.99616957 0.974237
0.015365529 -0.02093574 -0.020675573 0.0048122746 0.020797849 0.016783336 -0.015187991 0.006222311
0.021546818 0.01923684 -0.004095331 0.011161706 0.0115619395 0.018562442 0.0156132 0.021696668
-0.017626552 -0.015698412 0.012319161 0.0062100543 -0.016222034 0.0058124363 0.01607145 0.0047199638
0.009590031 -0.0070008477 -0.003698613 0.021016669 0.0069103087 -0.014064434 0.021234632 -8.1496284e-05
-0.020532321 -0.010836895 0.0040314016 -0.012946008 -0.009233131 0.017283365 0.015881905 0.016249264
0.01289077 -0.020089794 0.018264042 0.016987653 -0.014566113 -0.0020155604 -0.017008506 0.016152568
0.022598237 -0.0076766107 0.012969738 -0.01988017 0.016549975 0.005801682 0.014589826 -0.017578349
0.0061587645 0.019636009 -0.018103966 0.020211259 0.0015643828 0.0033748806 0.012225805 -0.010444372
-0.015854433 0.006891023 0.021930931 0.0020987666 -0.017537493 -0.005936637 0.002947448 -0.026480183
0.040485308 0.017569013 -0.017553939 0.004432522 -0.012231993 0.011028647 0.00017167136 -0.027110094
-0.0008282703 0.004630586 -0.015831696 -0.016270712 0.030786531 0.009687597 0.022552503 -0.019023973
-0.013029239 -0.037014652 -0.013901479 0.01074013 -0.0049149417 -0.013789125 -0.009600578 -0.006651081
-0.010090574 -0.025209071 -0.0347371 0.004012614 0.00023657997 0.01303614 -0.014657023 -0.005621768
-0.002180325 0.00032432616 0.014129079 0.007848321 -0.006812862 -0.037116732 0.012871044 0.018119443
0.010602958 -0.01584516 0.011850671 0.009502109 0.01931041 -0.009450911 0.012479402 0.008696134
-0.009827518 -0.025366526 -0.018961068 -0.0024144894 0.02505794 0.021806777 0.0022258551 -0.021511171
00000000: 7c52 83bc 39bb fb3b 17d6 d73c f8f0 6e3a
00000010: cbad 92bc 9d50 9dbb fc41 af3b 4cf1 e1bc
00000020: 35cf 1f3d 7f69 993c ea62 7fbc 64b0 9f3b
00000030: 3d53 4ebc 4904 523c 9ed8 b03a 9685 d1bc
00000040: 8517 0eba 1eda 863b 9347 87bc 27d8 88bc
00000050: a619 ff3c 43a2 343c f975 fd3c ee60 a7bc
00000060: 5cd3 34bc d113 14bd 6ab9 55bc 2e9a 493c
00000070: cd5f 83ba ee88 59bc 7e79 efbb 7728 03bc
00000080: 412c 2cbc 78a4 a9bc 6dca 12bd e1d3 b53b
00000090: 31cb 3739 7633 673c 86c8 4cbc 28a2 d7bb
000000a0: 1612 08b9 e8c4 a03a 5a6a 893c 3ca8 0b3c
000000b0: 3884 0cbc 5cb6 15bd a81b 7c3c 49b9 9b3c
000000c0: c6c7 4d3c 4f69 60bc 0f44 3e3c 5430 363c
000000d0: 8154 903c 29f4 3bbc 2c91 493c e49e 343c
000000e0: 1783 1bbc d51a cfbc 9a85 98bc bd30 413b
000000f0: 99da 043d 8ef9 d63c 519a 003b 5172 aabc
00000100: 6d17 7d3f a122 7e3f 1e15 833f 7af0 7e3f
00000110: 49a6 793f 70d8 7f3f 005e 7f3f 7cf8 7d3f
00000120: 48eb 823f fc3c 803f abd9 7c3f 603f 803f
00000130: 0fbe 7c3f ef25 803f 20e9 7e3f da6a 7a3f
00000140: 18af 7d3f 1b5c 7d3f b130 7a3f 7fde 783f
00000150: 2ec2 813f 014a 813f da61 823f f9d3 793f
00000160: 3f15 7e3f 4b19 7c3f 2b6e 7f3f fdac 813f
00000170: 0f23 7f3f fd03 7d3f 2f42 7c3f c547 7e3f
00000180: 4b84 7e3f 0489 803f 3a46 743f 2acc 7d3f
00000190: 5041 7e3f f0b6 7d3f 5f55 783f 532b 7b3f
000001a0: 9438 803f 6ceb 793f 0a18 803f 10e4 7d3f
000001b0: fe42 7e3f 7c25 773f 48c2 813f f2ab 803f
000001c0: fe04 7e3f 13ae 7b3f 4076 803f 443d 803f
000001d0: c088 803f df9b 7e3f 1ef0 7f3f 5d0a 803f
000001e0: 77fe 7e3f cf60 7b3f 051c 793f 71f9 7c3f
000001f0: 7d51 833f bdc4 803f f804 7f3f 9967 793f
00000200: b3bf 7b3c 6e81 abbc d25f a9bc 49b0 9d3b
00000210: 4060 aa3c 357d 893c 0dd7 78bc 87e4 cb3b
00000220: f482 b03c 9496 9d3c 2032 86bb 97df 363c
00000230: 4a6e 3d3c 4310 983c 82ce 7f3c 36bd b13c
00000240: 8f65 90bc f599 80bc 4ed6 493c b67d cb3b
00000250: 12e4 84bc 4076 be3b 46a8 833c eda9 9a3b
00000260: 811f 1d3c 5e67 e5bb 6e64 72bb 262b ac3c
00000270: df6f e23b 836e 66bc 40f4 ad3c fce8 aab8
00000280: 6633 a8bc 3b8d 31bc d919 843b 7e1b 54bc
00000290: 8f46 17bc d895 8d3c c51a 823c 2d1d 853c
000002a0: cf33 533c 5a93 a4bc 799e 953c b129 8b3c
000002b0: b5a6 6ebc 7e17 04bb 6c55 8bbc 6452 843c
000002c0: f01f b93c 148c fbbb 067f 543c bddb a2bc
000002d0: d093 873c 091c be3b 2a0a 6f3c 7800 90bc
000002e0: 76cf c93b b2db a03c c54e 94bc 1592 a53c
000002f0: fa0b cd3a 1a2d 5d3b be4e 483c df1e 2bbc
00000300: 28e1 81bc 17ce e13b 7fa8 b33c 768b 093b
00000310: caaa 8fbc 1f88 c2bb f929 413b f8ec d8bc
00000320: ecd3 253d e4ec 8f3c 47cd 8fbc b13e 913b
00000330: b268 48bc 80b1 343c ae02 3439 fd15 debc
00000340: 4720 59ba 2cbc 973b 79b1 81bc 284a 85bc
00000350: 0934 fc3c bab8 1e3c 07c0 b83c 2ad8 9bbc
00000360: 9778 55bc ad9c 17bd 07c3 63bc 5ff7 2f3c
00000370: 850d a1bb c8eb 61bc be4b 1dbc 50f1 d9bb
00000380: ef52 25bc 4183 cebc 7d48 0ebd 3f7c 833b
00000390: 7412 7839 8995 553c 0324 70bc cf36 b8bb
000003a0: c9e3 0ebb 520a aa39 a77d 673c 3f96 003c
000003b0: 6e3e dfbb b707 18bd 12e1 523c 3a6f 943c
000003c0: 07b8 2d3c b5cd 81bc 5129 423c bcae 1b3c
000003d0: dd30 9e3c fed7 1abc 6876 4c3c 3b7a 0e3c
000003e0: 9903 21bc 76cd cfbc 3e54 9bbc 693c 1ebb
000003f0: 4f46 cd3c 20a4 b23c a7df 113b 3238 b0bc

linear_out.weight f4 [25, 64]
0.10041613 -0.0973219 -0.0062679653 0.086426415 0.05460641 -0.029864175 -0.09680762 0.0007100304
0.08058484 0.0017945787 -0.064441115 -0.103910126 0.045481462 -0.030449996 -0.05382773 -0.051132336
0.07004081 -0.029631777 0.0050180554 0.0064233225 -0.0704955 0.14076652 0.028629446 0.010700685
0.06400782 0.05242061 -0.06556496 0.083478525 -0.04629747 -0.05660732 0.082683064 -0.07317993
0.016365021 -0.004969252 0.049243458 0.0201408 -0.030764055 -0.08375494 0.03612056 0.018491494
-0.021201191 -0.003055853 -0.124007985 0.08371902 -0.042940255 0.032566775 -0.08692275 0.051210508
0.04138728 -0.037877757 -0.08383036 0.08322627 -0.027907597 0.028488 0.11404601 -0.08932521
-0.1307317 -0.072186776 -0.050598808 -0.11515811 -0.020253094 -0.08707761 0.07806364 0.014110995
-0.1263333 -0.08882547 -0.053484634 0.09835459 -0.015555297 0.08470645 0.0920205 -0.055692565
-0.06517728 -0.0126373 0.0070661455 -0.00032172858 -0.071472585 0.011884209 0.10552066 0.03302422
0.08072666 0.0961973 0.0791573 0.03578903 0.021323115 0.049903713 0.035386242 -0.10184309
0.0102418605 0.069334224 0.06635429 0.077170275 -0.07473632 0.011274599 0.0009588733 -0.10578545
0.04964404 -0.039183337 -0.041864846 0.01576824 -0.032013558 -0.028575884 0.0038998853 -0.06970763
-0.10159301 -0.1003905 -0.11323667 -0.04915336 -0.06371148 -0.072225384 0.044198073 -0.047232468
0.103431754 0.10701243 -0.010038996 0.06106329 0.09985705 0.033765204 0.009512518 -0.008189582
-0.06308128 -0.020257257 0.005366049 -0.09476531 0.016761659 0.10953998 -0.10379116 0.08030162
0.09568029 -0.016891303 0.10108937 -0.1529352 -0.08559082 -0.025052162 0.13384278 0.03459337
-0.13889267 -0.09602569 -0.024550796 -0.10251612 -0.011264062 -0.13217284 -0.03148645 -0.011608596
0.04071398 0.068006575 -0.03332817 -0.13107039 0.11151385 -0.11661913 -0.09551886 0.109235644
-0.1272387 -0.045855265 -0.01155598 0.021286244 0.12569311 -0.10342842 0.0039623333 0.028745294
-0.065164216 -0.048228245 -0.07341091 0.04337078 0.030545427 0.030343607 -0.098202705 -0.09843085
-0.10926211 -0.06134418 -0.083883636 -0.05146836 -0.10481114 -0.10651726 0.032320768 -0.046089012
-0.095988415 -0.09870556 -0.07714413 0.0725753 0.009095803 0.07215179 -0.030718995 0.033383183
0.084721446 -0.04881594 -0.010776512 -0.13203463 -0.15415415 0.044950534 -0.12701297 0.10574793
-0.08672584 0.06717215 -0.07070024 -0.055776775 -0.09564521 -0.05345005 0.06326469 0.061409365
0.0013281264 0.010113571 -0.07232393 0.025334327 -0.054130625 -0.088900164 0.10906769 0.118838824
0.0944007 -0.036367826 -0.009554501 -0.062684864 -0.13766403 -0.06950613 0.010311394 -0.0491667
-0.07395403 0.038198058 0.00836081 0.13664372 0.09491777 0.09268798 0.1107984 -0.08642137
-0.028411325 -0.11649627 -0.007900689 0.0005611813 0.029139575 -0.046146948 0.10697672 0.023477647
0.03474688 0.062707335 0.055256866 0.10200005 -0.05091567 0.04032215 0.09615542 -0.08035885
-0.07498136 0.08200438 0.010408704 0.004534536 0.02511961 0.07275605 0.094348475 -0.020117091
-0.10151215 -0.06799525 -0.08895972 0.1242533 -0.011401454 -0.0805066 0.061189488 -0.10286726
00000000: f9a6 cd3d b450 c7bd 8163 cdbb 5500 b13d
00000010: f9aa 5f3d b7a5 f4bc 1343 c6bd 5521 3a3a
00000020: aa09 a53d 1238 eb3a b4f9 83bd d5ce d4bd
00000030: c54a 3a3d 4572 f9bc 777a 5cbd 2470 51bd
00000040: 8e71 8f3d 57be f2bc 806e a43b bc7a d23b
00000050: f25f 90bd 1925 103e 4d88 ea3c ed51 2f3c
00000060: 8816 833d feb6 563d ec46 86bd caf6 aa3d
00000070: 6aa2 3dbd 14dd 67bd bd55 a93d 5cdf 95bd
00000080: f00f 863c 1bd5 a2bb 82b3 493d 52fe a43c
00000090: e604 fcbc b687 abbd 27f3 133d 797b 973c
000000a0: 1fae adbc b544 48bb e6f7 fdbd e174 ab3d
000000b0: 1fe2 2fbd bd64 053d 8e04 b2bd 1cc2 513d
000000c0: b585 293d b525 1bbd 40af abbd 8972 aa3d
000000d0: 799e e4bc ab5f e93c f490 e93d 23f0 b6bd
000000e0: 88de 05be a9d6 93bd b240 4fbd 04d8 ebbd
000000f0: d1e9 a5bc bf55 b2bd d4df 9f3d ce31 673c
00000100: 845d 01be 21ea b5bd b412 5bbd 226e c93d
00000110: a5db 7ebc 937a ad3d 3e75 bc3d e31d 64bd
00000120: aa7b 85bd ae0c 4fbc 208b e73b aead a8b9
00000130: 3860 92bd fcb5 423c 371b d83d 6844 073d
00000140: 0554 a53d 1703 c53d 391d a23d 8597 123d
00000150: d0ad ae3c d667 4c3d 2af1 103d 1c93 d0bd
00000160: 7acd 273c 1aff 8d3d c2e4 873d 730b 9e3d
00000170: 5b0f 99bd 18b9 383c e65c 7b3a 0ba6 d8bd
00000180: 8d57 4b3d b57e 20bd 797a 2bbd 652c 813c
00000190: a620 03bd f917 eabc 3895 7f3b e0c2 8ebd
000001a0: ff0f d0bd 8999 cdbd a1e8 e7bd 0955 49bd
000001b0: 2a7b 82bd e7ea 93bd 0a09 353d d576 41bd
000001c0: 07d4 d33d 5529 db3d 9a7a 24bc 801d 7a3d
000001d0: da81 cc3d 624d 0a3d 64da 1b3c 992d 06bc
000001e0: c230 81bd 8cf2 a5bc aed5 af3b 5114 c2bd
000001f0: bf4f 893c 7f56 e03d 7690 d4bd 2d75 a43d
00000200: 07f4 c33d a15f 8abc f207 cf3d 0c9b 1cbe
00000210: 3d4a afbd 313a cdbc 150e 093e c7b1 0d3d
00000220: e139 0ebe 1ea9 c4bd c01e c9bc f9f3 d1bd
00000230: e68c 38bc 5158 07be f0f7 00bd fb31 3ebc
00000240: b4c3 263d 0847 8b3d 1f83 08bd 5137 06be
00000250: 6061 e43d 03d6 eebd 649f c3bd f0b6 df3d
00000260: dd4a 02be bbd2 3bbd 4b55 3dbc 7d60 ae3c
00000270: b2b5 003e 48d2 d3bd 76d6 813b 407b eb3c
00000280: d174 85bd fb8a 45bd 7658 96bd 8fa5 313d
00000290: 673a fa3c 2893 f83c 801e c9bd 1d96 c9bd
000002a0: d0c4 dfbd 0944 7bbd 2fcb abbd 7dd0 52bd
000002b0: 39a7 d6bd b925 dabd c862 043d d5c7 3cbd
000002c0: 9395 c4bd 2426 cabd befd 9dbd 5ca2 943d
000002d0: 9006 153c 51c4 933d 67a6 fbbc cebc 083d
000002e0: 7082 ad3d 39f3 47bd f88f 30bc 1634 07be
000002f0: 96da 1dbe 0d1e 383d b00f 02be 5f92 d83d
00000300: 519d b1bd 8d91 893d 4acb 90bd 3076 64bd
00000310: a3e1 c3bd 71ee 5abd eb90 813d 6388 7b3d
00000320: 8714 ae3a 64b3 253c 921e 94bd ef89 cf3c
00000330: 13b8 5dbd 4a11 b6bd e25e df3d c561 f33d
00000340: 2755 c13d 6ef6 14bd 7b8a 1cbc ec60 80bd
00000350: cdf7 0cbe 3b59 8ebd 1ff1 283c 0663 49bd
00000360: 3675 97bd 9175 1c3d c7fb 083c 55ec 0b3e
00000370: 3f64 c23d 32d3 bd3d 46ea e23d b0fd b0bd
00000380: debe e8bc 9995 eebd e471 01bc 3d1c 133a
00000390: 1eb6 ee3c 9504 3dbd 9c16 db3d 3254 c03c
000003a0: bf52 0e3d b46c 803d 0655 623d 67e5 d03d
000003b0: f38c 50bd d728 253d 22ed c43d 2e93 a4bd
000003c0: d48f 99bd eaf1 a73d 4589 2a3c 7296 943b
000003d0: a4c7 cd3c 2001 953d c639 c13d 99cc a4bc
000003e0: 9ae5 cfbd 1841 8bbd 8430 b6bd 8478 fe3d
000003f0: 2acd 3abc a5e0 a4bd d4a1 7a3d 12ac d2bd

linear_out.bias f4 [25]
-0.0023952378 0.039736576 -0.06160741 0.06799586 0.0072259954 0.0415856 -0.038283218 -0.096216075
0.025798334 0.05464149 -0.036632333 -0.0929453 -0.045828942 0.09078636 -0.02938289 -0.102171555
0.10933084 0.0018780964 0.0102029955 0.07102332 -0.00681512 0.101910315 -0.07411777 0.077197775
0.054681443
00000000: 6cf9 1cbb d2c2 223d 0d58 7cbd 6a41 8b3d
00000010: 0bc8 ec3b a955 2a3d ddce 1cbd ef0c c5bd
00000020: 0757 d33c c1cf 5f3d c90b 16bd 1b5a bebd
00000030: 21b7 3bbd 33ee b93d 63b4 f0bc 523f d1bd
00000040: d9e8 df3d 752a f63a 772a 273c ad74 913d
00000050: 5f51 dfbb 5bb6 d03d 0fcb 97bd de19 9e3d
00000060: a6f9 5f3d
